…
  (pos_drop): Dropout(p=0.0, axis=None, mode=upscale_in_train)
  (input_proj): InputProj(
    (proj): Sequential(
      (0): Conv2D(3, 32, kernel_size=[3, 3], padding=1, data_format=NCHW)
      (1): LeakyReLU(negative_slope=0.01)
    )
  )
  (output_proj): OutputProj(
    (proj): Sequential(
      (0): Conv2D(64, 3, kernel_size=[3, 3], padding=1, data_format=NCHW)
    )
  )
  (encoderlayer_0): BasicUformerLayer(dim=32, input_resolution=(128, 128), depth=2
    (blocks): LayerList(
      (0): LeWinTransformerBlock(dim=32, input_resolution=(128, 128), num_heads=1, win_size=8, shift_size=0, mlp_ratio=4.0
        (norm1): LayerNorm(normalized_shape=[32], epsilon=1e-05)
        (attn): WindowAttention(dim=32, win_size=(8, 8), num_heads=1
          (qkv): LinearProjection(
            (to_q): Linear(in_features=32, out_features=32, dtype=float32)
            (to_kv): Linear(in_features=32, out_features=64, dtype=float32)
          )
          (attn_drop): Dropout(p=0.0, axis=None, mode=upscale_in_train)
          (proj): Linear(in_features=32, out_features=32, dtype=float32)
          (se_layer): Identity()
          (proj_drop): Dropout(p=0.0, axis=None, mode=upscale_in_train)
          (softmax): Softmax(axis=-1)
        )
        (drop_path): Identity()
        (norm2): LayerNorm(normalized_shape=[32], epsilon=1e-05)
        (mlp): LeFF(
          (linear1): Sequential(
            (0): Linear(in_features=32, out_features=128, dtype=float32)
            (1): GELU(approximate=False)
          )
          (dwconv): Sequential(
            (0): Conv2D(128, 128, kernel_size=[3, 3], padding=1, groups=128, data_format=NCHW)
            (1): GELU(approximate=False)
          )
          (linear2): Sequential(
            (0): Linear(in_features=128, out_features=32, dtype=float32)
          )
        )
      )
      (1): LeWinTransformerBlock(dim=32, input_resolution=(128, 128), num_heads=1, win_size=8, shift_size=4, mlp_ratio=4.0
        (norm1): LayerNorm(normalized_shape=[32], epsilon=1e-05)
        (attn): WindowAttention(dim=32, win_size=(8, 8), num_heads=1
          (qkv): LinearProjection(
            (to_q): Linear(in_features=32, out_features=32, dtype=float32)
            (to_kv): Linear(in_features=32, out_features=64, dtype=float32)
          )
          (attn_drop): Dropout(p=0.0, axis=None, mode=upscale_in_train)
          (proj): Linear(in_features=32, out_features=32, dtype=float32)
          (se_layer): Identity()
          (proj_drop): Dropout(p=0.0, axis=None, mode=upscale_in_train)
          (softmax): Softmax(axis=-1)
        )
        (drop_path): DropPath()
        (norm2): LayerNorm(normalized_shape=[32], epsilon=1e-05)
        (mlp): LeFF(
          (linear1): Sequential(
            (0): Linear(in_features=32, out_features=128, dtype=float32)
            (1): GELU(approximate=False)
          )
          (dwconv): Sequential(
            (0): Conv2D(128, 128, kernel_size=[3, 3], padding=1, groups=128, data_format=NCHW)
            (1): GELU(approximate=False)
          )
          (linear2): Sequential(
            (0): Linear(in_features=128, out_features=32, dtype=float32)
          )
        )
      )
    )
  )
  (dowsample_0): Downsample(
    (conv): Sequential(
      (0): Conv2D(32, 64, kernel_size=[4, 4], stride=[2, 2], padding=1, data_format=NCHW)
    )
  )
  (encoderlayer_1): BasicUformerLayer(dim=64, input_resolution=(64, 64), depth=2
    (blocks): LayerList(
      (0): LeWinTransformerBlock(dim=64, input_resolution=(64, 64), num_heads=2, win_size=8, shift_size=0, mlp_ratio=4.0
        (norm1): LayerNorm(normalized_shape=[64], epsilon=1e-05)
        (attn): WindowAttention(dim=64, win_size=(8, 8), num_heads=2
          (qkv): LinearProjection(
            (to_q): Linear(in_features=64, out_features=64, dtype=float32)
            (to_kv): Linear(in_features=64, out_features=128, dtype=float32)
          )
          (attn_drop): Dropout(p=0.0, axis=None, mode=upscale_in_train)
          (proj): Linear(in_features=64, out_features=64, dtype=float32)
          (se_layer): Identity()
          (proj_drop): Dropout(p=0.0, axis=None, mode=upscale_in_train)
          (softmax): Softmax(axis=-1)
        )
        (drop_path): DropPath()
        (norm2): LayerNorm(normalized_shape=[64], epsilon=1e-05)
        (mlp): LeFF(
          (linear1): Sequential(
            (0): Linear(in_features=64, out_features=256, dtype=float32)
            (1): GELU(approximate=False)
          )
          (dwconv): Sequential(
            (0): Conv2D(256, 256, kernel_size=[3, 3], padding=1, groups=256, data_format=NCHW)
            (1): GELU(approximate=False)
          )
          (linear2): Sequential(
            (0): Linear(in_features=256, out_features=64, dtype=float32)
          )
        )
      )
      (1): LeWinTransformerBlock(dim=64, input_resolution=(64, 64), num_heads=2, win_size=8, shift_size=4, mlp_ratio=4.0
        (norm1): LayerNorm(normalized_shape=[64], epsilon=1e-05)
        (attn): WindowAttention(dim=64, win_size=(8, 8), num_heads=2
          (qkv): LinearProjection(
            (to_q): Linear(in_features=64, out_features=64, dtype=float32)
            (to_kv): Linear(in_features=64, out_features=128, dtype=float32)
          )
          (attn_drop): Dropout(p=0.0, axis=None, mode=upscale_in_train)
          (proj): Linear(in_features=64, out_features=64, dtype=float32)
          (se_layer): Identity()
          (proj_drop): Dropout(p=0.0, axis=None, mode=upscale_in_train)
          (softmax): Softmax(axis=-1)
        )
        (drop_path): DropPath()
        (norm2): LayerNorm(normalized_shape=[64], epsilon=1e-05)
        (mlp): LeFF(
          (linear1): Sequential(
            (0): Linear(in_features=64, out_features=256, dtype=float32)
            (1): GELU(approximate=False)
          )
          (dwconv): Sequential(
            (0): Conv2D(256, 256, kernel_size=[3, 3], padding=1, groups=256, data_format=NCHW)
            (1): GELU(approximate=False)
          )
          (linear2): Sequential(
            (0): Linear(in_features=256, out_features=64, dtype=float32)
          )
        )
      )
    )
  )
  (dowsample_1): Downsample(
    (conv): Sequential(
      (0): Conv2D(64, 128, kernel_size=[4, 4], stride=[2, 2], padding=1, data_format=NCHW)
    )
  )
  (encoderlayer_2): BasicUformerLayer(dim=128, input_resolution=(32, 32), depth=2
    (blocks): LayerList(
      (0): LeWinTransformerBlock(dim=128, input_resolution=(32, 32), num_heads=4, win_size=8, shift_size=0, mlp_ratio=4.0
        (norm1): LayerNorm(normalized_shape=[128], epsilon=1e-05)
        (attn): WindowAttention(dim=128, win_size=(8, 8), num_heads=4
          (qkv): LinearProjection(
            (to_q): Linear(in_features=128, out_features=128, dtype=float32)
            (to_kv): Linear(in_features=128, out_features=256, dtype=float32)
          )
          (attn_drop): Dropout(p=0.0, axis=None, mode=upscale_in_train)
          (proj): Linear(in_features=128, out_features=128, dtype=float32)
          (se_layer): Identity()
          (proj_drop): Dropout(p=0.0, axis=None, mode=upscale_in_train)
          (softmax): Softmax(axis=-1)
        )
        (drop_path): DropPath()
        (norm2): LayerNorm(normalized_shape=[128], epsilon=1e-05)
        (mlp): LeFF(
          (linear1): Sequential(
            (0): Linear(in_features=128, out_features=512, dtype=float32)
            (1): GELU(approximate=False)
          )
          (dwconv): Sequential(
            (0): Conv2D(512, 512, kernel_size=[3, 3], padding=1, groups=512, data_format=NCHW)
            (1): GELU(approximate=False)
          )
          (linear2): Sequential(
            (0): Linear(in_features=512, out_features=128, dtype=float32)
          )
        )
      )
      (1): LeWinTransformerBlock(dim=128, input_resolution=(32, 32), num_heads=4, win_size=8, shift_size=4, mlp_ratio=4.0
        (norm1): LayerNorm(normalized_shape=[128], epsilon=1e-05)
        (attn): WindowAttention(dim=128, win_size=(8, 8), num_heads=4
          (qkv): LinearProjection(
            (to_q): Linear(in_features=128, out_features=128, dtype=float32)
            (to_kv): Linear(in_features=128, out_features=256, dtype=float32)
          )
          (attn_drop): Dropout(p=0.0, axis=None, mode=upscale_in_train)
          (proj): Linear(in_features=128, out_features=128, dtype=float32)
          (se_layer): Identity()
          (proj_drop): Dropout(p=0.0, axis=None, mode=upscale_in_train)
          (softmax): Softmax(axis=-1)
        )
        (drop_path): DropPath()
        (norm2): LayerNorm(normalized_shape=[128], epsilon=1e-05)
        (mlp): LeFF(
          (linear1): Sequential(
            (0): Linear(in_features=128, out_features=512, dtype=float32)
            (1): GELU(approximate=False)
          )
          (dwconv): Sequential(
            (0): Conv2D(512, 512, kernel_size=[3, 3], padding=1, groups=512, data_format=NCHW)
            (1): GELU(approximate=False)
          )
          (linear2): Sequential(
            (0): Linear(in_features=512, out_features=128, dtype=float32)
          )
        )
      )
    )
  )
  (dowsample_2): Downsample(
    (conv): Sequential(
      (0): Conv2D(128, 256, kernel_size=[4, 4], stride=[2, 2], padding=1, data_format=NCHW)
    )
  )
  (encoderlayer_3): BasicUformerLayer(dim=256, input_resolution=(16, 16), depth=2
    (blocks): LayerList(
      (0): LeWinTransformerBlock(dim=256, input_resolution=(16, 16), num_heads=8, win_size=8, shift_size=0, mlp_ratio=4.0
        (norm1): LayerNorm(normalized_shape=[256], epsilon=1e-05)
        (attn): WindowAttention(dim=256, win_size=(8, 8), num_heads=8
          (qkv): LinearProjection(
            (to_q): Linear(in_features=256, out_features=256, dtype=float32)
            (to_kv): Linear(in_features=256, out_features=512, dtype=float32)
          )
          (attn_drop): Dropout(p=0.0, axis=None, mode=upscale_in_train)
          (proj): Linear(in_features=256, out_features=256, dtype=float32)
          (se_layer): Identity()
          (proj_drop): Dropout(p=0.0, axis=None, mode=upscale_in_train)
          (softmax): Softmax(axis=-1)
        )
        (drop_path): DropPath()
        (norm2): LayerNorm(normalized_shape=[256], epsilon=1e-05)
        (mlp): LeFF(
          (linear1): Sequential(
            (0): Linear(in_features=256, out_features=1024, dtype=float32)
            (1): GELU(approximate=False)
          )
          (dwconv): Sequential(
            (0): Conv2D(1024, 1024, kernel_size=[3, 3], padding=1, groups=1024, data_format=NCHW)
            (1): GELU(approximate=False)
          )
          (linear2): Sequential(
            (0): Linear(in_features=1024, out_features=256, dtype=float32)
          )
        )
      )
      (1): LeWinTransformerBlock(dim=256, input_resolution=(16, 16), num_heads=8, win_size=8, shift_size=4, mlp_ratio=4.0
        (norm1): LayerNorm(normalized_shape=[256], epsilon=1e-05)
        (attn): WindowAttention(dim=256, win_size=(8, 8), num_heads=8
          (qkv): LinearProjection(
            (to_q): Linear(in_features=256, out_features=256, dtype=float32)
            (to_kv): Linear(in_features=256, out_features=512, dtype=float32)
          )
          (attn_drop): Dropout(p=0.0, axis=None, mode=upscale_in_train)
          (proj): Linear(in_features=256, out_features=256, dtype=float32)
          (se_layer): Identity()
          (proj_drop): Dropout(p=0.0, axis=None, mode=upscale_in_train)
          (softmax): Softmax(axis=-1)
        )
        (drop_path): DropPath()
        (norm2): LayerNorm(normalized_shape=[256], epsilon=1e-05)
        (mlp): LeFF(
          (linear1): Sequential(
            (0): Linear(in_features=256, out_features=1024, dtype=float32)
            (1): GELU(approximate=False)
          )
          (dwconv): Sequential(
            (0): Conv2D(1024, 1024, kernel_size=[3, 3], padding=1, groups=1024, data_format=NCHW)
            (1): GELU(approximate=False)
          )
          (linear2): Sequential(
            (0): Linear(in_features=1024, out_features=256, dtype=float32)
          )
        )
      )
    )
  )
  (dowsample_3): Downsample(
    (conv): Sequential(
      (0): Conv2D(256, 512, kernel_size=[4, 4], stride=[2, 2], padding=1, data_format=NCHW)
    )
  )
  (conv): BasicUformerLayer(dim=512, input_resolution=(8, 8), depth=2
    (blocks): LayerList(
      (0): LeWinTransformerBlock(dim=512, input_resolution=(8, 8), num_heads=16, win_size=8, shift_size=0, mlp_ratio=4.0
        (norm1): LayerNorm(normalized_shape=[512], epsilon=1e-05)
        (attn): WindowAttention(dim=512, win_size=(8, 8), num_heads=16
          (qkv): LinearProjection(
            (to_q): Linear(in_features=512, out_features=512, dtype=float32)
            (to_kv): Linear(in_features=512, out_features=1024, dtype=float32)
          )
          (attn_drop): Dropout(p=0.0, axis=None, mode=upscale_in_train)
          (proj): Linear(in_features=512, out_features=512, dtype=float32)
          (se_layer): Identity()
          (proj_drop): Dropout(p=0.0, axis=None, mode=upscale_in_train)
          (softmax): Softmax(axis=-1)
        )
        (drop_path): DropPath()
        (norm2): LayerNorm(normalized_shape=[512], epsilon=1e-05)
        (mlp): LeFF(
          (linear1): Sequential(
            (0): Linear(in_features=512, out_features=2048, dtype=float32)
            (1): GELU(approximate=False)
          )
          (dwconv): Sequential(
            (0): Conv2D(2048, 2048, kernel_size=[3, 3], padding=1, groups=2048, data_format=NCHW)
            (1): GELU(approximate=False)
          )
          (linear2): Sequential(
            (0): Linear(in_features=2048, out_features=512, dtype=float32)
          )
        )
      )
      (1): LeWinTransformerBlock(dim=512, input_resolution=(8, 8), num_heads=16, win_size=8, shift_size=0, mlp_ratio=4.0
        (norm1): LayerNorm(normalized_shape=[512], epsilon=1e-05)
        (attn): WindowAttention(dim=512, win_size=(8, 8), num_heads=16
          (qkv): LinearProjection(
            (to_q): Linear(in_features=512, out_features=512, dtype=float32)
            (to_kv): Linear(in_features=512, out_features=1024, dtype=float32)
          )
          (attn_drop): Dropout(p=0.0, axis=None, mode=upscale_in_train)
          (proj): Linear(in_features=512, out_features=512, dtype=float32)
          (se_layer): Identity()
          (proj_drop): Dropout(p=0.0, axis=None, mode=upscale_in_train)
          (softmax): Softmax(axis=-1)
        )
        (drop_path): DropPath()
        (norm2): LayerNorm(normalized_shape=[512], epsilon=1e-05)
        (mlp): LeFF(
          (linear1): Sequential(
            (0): Linear(in_features=512, out_features=2048, dtype=float32)
            (1): GELU(approximate=False)
          )
          (dwconv): Sequential(
            (0): Conv2D(2048, 2048, kernel_size=[3, 3], padding=1, groups=2048, data_format=NCHW)
            (1): GELU(approximate=False)
          )
          (linear2): Sequential(
            (0): Linear(in_features=2048, out_features=512, dtype=float32)
          )
        )
      )
    )
  )
  (upsample_0): Upsample(
    (deconv): Sequential(
      (0): Conv2DTranspose(512, 256, kernel_size=[2, 2], stride=[2, 2], data_format=NCHW)
    )
  )
  (decoderlayer_0): BasicUformerLayer(dim=512, input_resolution=(16, 16), depth=2
    (blocks): LayerList(
      (0): LeWinTransformerBlock(dim=512, input_resolution=(16, 16), num_heads=16, win_size=8, shift_size=0, mlp_ratio=4.0
        (norm1): LayerNorm(normalized_shape=[512], epsilon=1e-05)
        (attn): WindowAttention(dim=512, win_size=(8, 8), num_heads=16
          (qkv): LinearProjection(
            (to_q): Linear(in_features=512, out_features=512, dtype=float32)
            (to_kv): Linear(in_features=512, out_features=1024, dtype=float32)
          )
          (attn_drop): Dropout(p=0.0, axis=None, mode=upscale_in_train)
          (proj): Linear(in_features=512, out_features=512, dtype=float32)
          (se_layer): Identity()
          (proj_drop): Dropout(p=0.0, axis=None, mode=upscale_in_train)
          (softmax): Softmax(axis=-1)
        )
        (drop_path): DropPath()
        (norm2): LayerNorm(normalized_shape=[512], epsilon=1e-05)
        (mlp): LeFF(
          (linear1): Sequential(
            (0): Linear(in_features=512, out_features=2048, dtype=float32)
            (1): GELU(approximate=False)
          )
          (dwconv): Sequential(
            (0): Conv2D(2048, 2048, kernel_size=[3, 3], padding=1, groups=2048, data_format=NCHW)
            (1): GELU(approximate=False)
          )
          (linear2): Sequential(
            (0): Linear(in_features=2048, out_features=512, dtype=float32)
          )
        )
      )
      (1): LeWinTransformerBlock(dim=512, input_resolution=(16, 16), num_heads=16, win_size=8, shift_size=4, mlp_ratio=4.0
        (norm1): LayerNorm(normalized_shape=[512], epsilon=1e-05)
        (attn): WindowAttention(dim=512, win_size=(8, 8), num_heads=16
          (qkv): LinearProjection(
            (to_q): Linear(in_features=512, out_features=512, dtype=float32)
            (to_kv): Linear(in_features=512, out_features=1024, dtype=float32)
          )
          (attn_drop): Dropout(p=0.0, axis=None, mode=upscale_in_train)
          (proj): Linear(in_features=512, out_features=512, dtype=float32)
          (se_layer): Identity()
          (proj_drop): Dropout(p=0.0, axis=None, mode=upscale_in_train)
          (softmax): Softmax(axis=-1)
        )
        (drop_path): DropPath()
        (norm2): LayerNorm(normalized_shape=[512], epsilon=1e-05)
        (mlp): LeFF(
          (linear1): Sequential(
            (0): Linear(in_features=512, out_features=2048, dtype=float32)
            (1): GELU(approximate=False)
          )
          (dwconv): Sequential(
            (0): Conv2D(2048, 2048, kernel_size=[3, 3], padding=1, groups=2048, data_format=NCHW)
            (1): GELU(approximate=False)
          )
          (linear2): Sequential(
            (0): Linear(in_features=2048, out_features=512, dtype=float32)
          )
        )
      )
    )
  )
  (upsample_1): Upsample(
    (deconv): Sequential(
      (0): Conv2DTranspose(512, 128, kernel_size=[2, 2], stride=[2, 2], data_format=NCHW)
    )
  )
  (decoderlayer_1): BasicUformerLayer(dim=256, input_resolution=(32, 32), depth=2
    (blocks): LayerList(
      (0): LeWinTransformerBlock(dim=256, input_resolution=(32, 32), num_heads=8, win_size=8, shift_size=0, mlp_ratio=4.0
        (norm1): LayerNorm(normalized_shape=[256], epsilon=1e-05)
        (attn): WindowAttention(dim=256, win_size=(8, 8), num_heads=8
          (qkv): LinearProjection(
            (to_q): Linear(in_features=256, out_features=256, dtype=float32)
            (to_kv): Linear(in_features=256, out_features=512, dtype=float32)
          )
          (attn_drop): Dropout(p=0.0, axis=None, mode=upscale_in_train)
          (proj): Linear(in_features=256, out_features=256, dtype=float32)
          (se_layer): Identity()
          (proj_drop): Dropout(p=0.0, axis=None, mode=upscale_in_train)
          (softmax): Softmax(axis=-1)
        )
        (drop_path): DropPath()
        (norm2): LayerNorm(normalized_shape=[256], epsilon=1e-05)
        (mlp): LeFF(
          (linear1): Sequential(
            (0): Linear(in_features=256, out_features=1024, dtype=float32)
            (1): GELU(approximate=False)
          )
          (dwconv): Sequential(
            (0): Conv2D(1024, 1024, kernel_size=[3, 3], padding=1, groups=1024, data_format=NCHW)
            (1): GELU(approximate=False)
          )
          (linear2): Sequential(
            (0): Linear(in_features=1024, out_features=256, dtype=float32)
          )
        )
      )
      (1): LeWinTransformerBlock(dim=256, input_resolution=(32, 32), num_heads=8, win_size=8, shift_size=4, mlp_ratio=4.0
        (norm1): LayerNorm(normalized_shape=[256], epsilon=1e-05)
        (attn): WindowAttention(dim=256, win_size=(8, 8), num_heads=8
          (qkv): LinearProjection(
            (to_q): Linear(in_features=256, out_features=256, dtype=float32)
            (to_kv): Linear(in_features=256, out_features=512, dtype=float32)
          )
          (attn_drop): Dropout(p=0.0, axis=None, mode=upscale_in_train)
          (proj): Linear(in_features=256, out_features=256, dtype=float32)
          (se_layer): Identity()
          (proj_drop): Dropout(p=0.0, axis=None, mode=upscale_in_train)
          (softmax): Softmax(axis=-1)
        )
        (drop_path): DropPath()
        (norm2): LayerNorm(normalized_shape=[256], epsilon=1e-05)
        (mlp): LeFF(
          (linear1): Sequential(
            (0): Linear(in_features=256, out_features=1024, dtype=float32)
            (1): GELU(approximate=False)
          )
          (dwconv): Sequential(
            (0): Conv2D(1024, 1024, kernel_size=[3, 3], padding=1, groups=1024, data_format=NCHW)
            (1): GELU(approximate=False)
          )
          (linear2): Sequential(
            (0): Linear(in_features=1024, out_features=256, dtype=float32)
          )
        )
      )
    )
  )
  (upsample_2): Upsample(
    (deconv): Sequential(
      (0): Conv2DTranspose(256, 64, kernel_size=[2, 2], stride=[2, 2], data_format=NCHW)
    )
  )
  (decoderlayer_2): BasicUformerLayer(dim=128, input_resolution=(64, 64), depth=2
    (blocks): LayerList(
      (0): LeWinTransformerBlock(dim=128, input_resolution=(64, 64), num_heads=4, win_size=8, shift_size=0, mlp_ratio=4.0
        (norm1): LayerNorm(normalized_shape=[128], epsilon=1e-05)
        (attn): WindowAttention(dim=128, win_size=(8, 8), num_heads=4
          (qkv): LinearProjection(
            (to_q): Linear(in_features=128, out_features=128, dtype=float32)
            (to_kv): Linear(in_features=128, out_features=256, dtype=float32)
          )
          (attn_drop): Dropout(p=0.0, axis=None, mode=upscale_in_train)
          (proj): Linear(in_features=128, out_features=128, dtype=float32)
          (se_layer): Identity()
          (proj_drop): Dropout(p=0.0, axis=None, mode=upscale_in_train)
          (softmax): Softmax(axis=-1)
        )
        (drop_path): DropPath()
        (norm2): LayerNorm(normalized_shape=[128], epsilon=1e-05)
        (mlp): LeFF(
          (linear1): Sequential(
            (0): Linear(in_features=128, out_features=512, dtype=float32)
            (1): GELU(approximate=False)
          )
          (dwconv): Sequential(
            (0): Conv2D(512, 512, kernel_size=[3, 3], padding=1, groups=512, data_format=NCHW)
            (1): GELU(approximate=False)
          )
          (linear2): Sequential(
            (0): Linear(in_features=512, out_features=128, dtype=float32)
          )
        )
      )
      (1): LeWinTransformerBlock(dim=128, input_resolution=(64, 64), num_heads=4, win_size=8, shift_size=4, mlp_ratio=4.0
        (norm1): LayerNorm(normalized_shape=[128], epsilon=1e-05)
        (attn): WindowAttention(dim=128, win_size=(8, 8), num_heads=4
          (qkv): LinearProjection(
            (to_q): Linear(in_features=128, out_features=128, dtype=float32)
            (to_kv): Linear(in_features=128, out_features=256, dtype=float32)
          )
          (attn_drop): Dropout(p=0.0, axis=None, mode=upscale_in_train)
          (proj): Linear(in_features=128, out_features=128, dtype=float32)
          (se_layer): Identity()
          (proj_drop): Dropout(p=0.0, axis=None, mode=upscale_in_train)
          (softmax): Softmax(axis=-1)
        )
        (drop_path): DropPath()
        (norm2): LayerNorm(normalized_shape=[128], epsilon=1e-05)
        (mlp): LeFF(
          (linear1): Sequential(
            (0): Linear(in_features=128, out_features=512, dtype=float32)
            (1): GELU(approximate=False)
          )
          (dwconv): Sequential(
            (0): Conv2D(512, 512, kernel_size=[3, 3], padding=1, groups=512, data_format=NCHW)
            (1): GELU(approximate=False)
          )
          (linear2): Sequential(
            (0): Linear(in_features=512, out_features=128, dtype=float32)
          )
        )
      )
    )
  )
  (upsample_3): Upsample(
    (deconv): Sequential(
      (0): Conv2DTranspose(128, 32, kernel_size=[2, 2], stride=[2, 2], data_format=NCHW)
    )
  )
  (decoderlayer_3): BasicUformerLayer(dim=64, input_resolution=(128, 128), depth=2
    (blocks): LayerList(
      (0): LeWinTransformerBlock(dim=64, input_resolution=(128, 128), num_heads=2, win_size=8, shift_size=0, mlp_ratio=4.0
        (norm1): LayerNorm(normalized_shape=[64], epsilon=1e-05)
        (attn): WindowAttention(dim=64, win_size=(8, 8), num_heads=2
          (qkv): LinearProjection(
            (to_q): Linear(in_features=64, out_features=64, dtype=float32)
            (to_kv): Linear(in_features=64, out_features=128, dtype=float32)
          )
          (attn_drop): Dropout(p=0.0, axis=None, mode=upscale_in_train)
          (proj): Linear(in_features=64, out_features=64, dtype=float32)
          (se_layer): Identity()
          (proj_drop): Dropout(p=0.0, axis=None, mode=upscale_in_train)
          (softmax): Softmax(axis=-1)
        )
        (drop_path): DropPath()
        (norm2): LayerNorm(normalized_shape=[64], epsilon=1e-05)
        (mlp): LeFF(
          (linear1): Sequential(
            (0): Linear(in_features=64, out_features=256, dtype=float32)
            (1): GELU(approximate=False)
          )
          (dwconv): Sequential(
            (0): Conv2D(256, 256, kernel_size=[3, 3], padding=1, groups=256, data_format=NCHW)
            (1): GELU(approximate=False)
          )
          (linear2): Sequential(
            (0): Linear(in_features=256, out_features=64, dtype=float32)
          )
        )
      )
      (1): LeWinTransformerBlock(dim=64, input_resolution=(128, 128), num_heads=2, win_size=8, shift_size=4, mlp_ratio=4.0
        (norm1): LayerNorm(normalized_shape=[64], epsilon=1e-05)
        (attn): WindowAttention(dim=64, win_size=(8, 8), num_heads=2
          (qkv): LinearProjection(
            (to_q): Linear(in_features=64, out_features=64, dtype=float32)
            (to_kv): Linear(in_features=64, out_features=128, dtype=float32)
          )
          (attn_drop): Dropout(p=0.0, axis=None, mode=upscale_in_train)
          (proj): Linear(in_features=64, out_features=64, dtype=float32)
          (se_layer): Identity()
          (proj_drop): Dropout(p=0.0, axis=None, mode=upscale_in_train)
          (softmax): Softmax(axis=-1)
        )
        (drop_path): Identity()
        (norm2): LayerNorm(normalized_shape=[64], epsilon=1e-05)
        (mlp): LeFF(
          (linear1): Sequential(
            (0): Linear(in_features=64, out_features=256, dtype=float32)
            (1): GELU(approximate=False)
          )
          (dwconv): Sequential(
            (0): Conv2D(256, 256, kernel_size=[3, 3], padding=1, groups=256, data_format=NCHW)
            (1): GELU(approximate=False)
          )
          (linear2): Sequential(
            (0): Linear(in_features=256, out_features=64, dtype=float32)
          )
        )
      )
    )
  )
)
[Ep 1 it 498	 PSNR demoire: 14.7581	] ----  [best_Ep_demoire 1 best_it_demoire 498 Best_PSNR_demoire 14.7581] 
[Ep 1 it 997	 PSNR demoire: 19.3269	] ----  [best_Ep_demoire 1 best_it_demoire 997 Best_PSNR_demoire 19.3269] 
[Ep 1 it 1496	 PSNR demoire: 22.8745	] ----  [best_Ep_demoire 1 best_it_demoire 1496 Best_PSNR_demoire 22.8745] 
…
